…
able()\n","\n","if not train_on_gpu:\n","    print('CUDA is not available.  Training on CPU ...')\n","else:\n","    print('CUDA is available!  Training on GPU ...')"]},{"cell_type":"code","execution_count":null,"metadata":{"colab":{"base_uri":"https://localhost:8080/"},"executionInfo":{"elapsed":4,"status":"ok","timestamp":1668348048593,"user":{"displayName":"William Simpson","userId":"04422818543077927070"},"user_tz":300},"id":"uPDmSxqxdr65","outputId":"1f2a696a-b803-4924-e970-186ccca1bcf8"},"outputs":[{"output_type":"stream","name":"stdout","text":["CNN(\n","  (conv1): Sequential(\n","    (0): Conv2d(3, 16, kernel_size=(2, 2), stride=(1, 1))\n","    (1): BatchNorm2d(16, eps=1e-05, momentum=0.1, affine=True, track_running_stats=True)\n","    (2): ReLU(inplace=True)\n","    (3): MaxPool2d(kernel_size=2, stride=2, padding=0, dilation=1, ceil_mode=False)\n","  )\n","  (conv2): Sequential(\n","    (0): Conv2d(16, 32, kernel_size=(2, 2), stride=(1, 1), padding=(1, 1))\n","    (1): BatchNorm2d(32, eps=1e-05, momentum=0.1, affine=True, track_running_stats=True)\n","    (2): ReLU(inplace=True)\n","    (3): MaxPool2d(kernel_size=2, stride=2, padding=0, dilation=1, ceil_mode=False)\n","  )\n","  (conv3): Sequential(\n","    (0): Conv2d(32, 128, kernel_size=(2, 2), stride=(1, 1), padding=(1, 1))\n","    (1): BatchNorm2d(128, eps=1e-05, momentum=0.1, affine=True, track_running_stats=True)\n","    (2): ReLU(inplace=True)\n","    (3): MaxPool2d(kernel_size=2, stride=2, padding=0, dilation=1, ceil_mode=False)\n","  )\n","  (dropout2d): Dropout2d(p=0.5, inplace=False)\n","  (fc): Sequential(\n","    (0): Linear(in_features=18432, out_features=1024, bias=True)\n","    (1): ReLU(inplace=True)\n","    (2): Dropout(p=0.4, inplace=False)\n","    (3): Linear(in_features=1024, out_features=512, bias=True)\n","    (4): Dropout(p=0.4, inplace=False)\n","    (5): Linear(in_features=512, out_features=1, bias=True)\n","    (6): Sigmoid()\n","  )\n",")\n"]}],"source":["# create a complete CNN\n","model = CNN()\n","print(model)\n","\n","# Move model to GPU if available\n","if train_on_gpu: model.cuda()"]},{"cell_type":"code","execution_count":null,"metadata":{"id":"9wIkGLk_drx2"},"outputs":[],"source":["criterion = nn.BCELoss()\n","\n","# specify optimizer\n","optimi
…
ble()\n","\n","if not train_on_gpu:\n","    print('CUDA is not available.  Training on CPU ...')\n","else:\n","    print('CUDA is available!  Training on GPU ...')"]},{"cell_type":"code","execution_count":null,"metadata":{"colab":{"base_uri":"https://localhost:8080/"},"executionInfo":{"elapsed":24,"status":"ok","timestamp":1668349205451,"user":{"displayName":"William Simpson","userId":"04422818543077927070"},"user_tz":300},"outputId":"559c6ffc-ed95-4ac9-838c-8419483c6ed1","id":"fAMF725_N6jg"},"outputs":[{"output_type":"stream","name":"stdout","text":["CNN(\n","  (conv1): Sequential(\n","    (0): Conv2d(3, 16, kernel_size=(2, 2), stride=(1, 1))\n","    (1): BatchNorm2d(16, eps=1e-05, momentum=0.1, affine=True, track_running_stats=True)\n","    (2): ReLU(inplace=True)\n","    (3): MaxPool2d(kernel_size=2, stride=2, padding=0, dilation=1, ceil_mode=False)\n","  )\n","  (conv2): Sequential(\n","    (0): Conv2d(16, 32, kernel_size=(2, 2), stride=(1, 1), padding=(1, 1))\n","    (1): BatchNorm2d(32, eps=1e-05, momentum=0.1, affine=True, track_running_stats=True)\n","    (2): ReLU(inplace=True)\n","    (3): MaxPool2d(kernel_size=2, stride=2, padding=0, dilation=1, ceil_mode=False)\n","  )\n","  (conv3): Sequential(\n","    (0): Conv2d(32, 128, kernel_size=(2, 2), stride=(1, 1), padding=(1, 1))\n","    (1): BatchNorm2d(128, eps=1e-05, momentum=0.1, affine=True, track_running_stats=True)\n","    (2): ReLU(inplace=True)\n","    (3): MaxPool2d(kernel_size=2, stride=2, padding=0, dilation=1, ceil_mode=False)\n","  )\n","  (dropout2d): Dropout2d(p=0.5, inplace=False)\n","  (fc): Sequential(\n","    (0): Linear(in_features=18432, out_features=512, bias=True)\n","    (1): ReLU(inplace=True)\n","    (2): Dropout(p=0.4, inplace=False)\n","    (3): Linear(in_features=512, out_features=256, bias=True)\n","    (4): Dropout(p=0.4, inplace=False)\n","    (5): Linear(in_features=256, out_features=1, bias=True)\n","    (6): Sigmoid()\n","  )\n",")\n"]}],"source":["# create a complete CNN\n","model = CNN()\n","print(model)\n","\n","# Move model to GPU if available\n","if train_on_gpu: model.cuda()"]},{"cell_type":"code","execution_count":null,"metadata":{"id":"-TjaAjQsN6jg"},"outputs":[],"source":["criterion = nn.BCELoss()\n","\n","# specify optimizer\n","optimi
…
ble()\n","\n","if not train_on_gpu:\n","    print('CUDA is not available.  Training on CPU ...')\n","else:\n","    print('CUDA is available!  Training on GPU ...')"]},{"cell_type":"code","execution_count":null,"metadata":{"colab":{"base_uri":"https://localhost:8080/"},"executionInfo":{"elapsed":16,"status":"ok","timestamp":1668350190520,"user":{"displayName":"William Simpson","userId":"04422818543077927070"},"user_tz":300},"outputId":"79879204-4045-419e-facf-9c479c02313b","id":"DeGjp0ExQng6"},"outputs":[{"output_type":"stream","name":"stdout","text":["CNN(\n","  (conv1): Sequential(\n","    (0): Conv2d(3, 16, kernel_size=(2, 2), stride=(1, 1))\n","    (1): BatchNorm2d(16, eps=1e-05, momentum=0.1, affine=True, track_running_stats=True)\n","    (2): ReLU(inplace=True)\n","    (3): MaxPool2d(kernel_size=2, stride=2, padding=0, dilation=1, ceil_mode=False)\n","  )\n","  (conv2): Sequential(\n","    (0): Conv2d(16, 32, kernel_size=(2, 2), stride=(1, 1), padding=(1, 1))\n","    (1): BatchNorm2d(32, eps=1e-05, momentum=0.1, affine=True, track_running_stats=True)\n","    (2): ReLU(inplace=True)\n","    (3): MaxPool2d(kernel_size=2, stride=2, padding=0, dilation=1, ceil_mode=False)\n","  )\n","  (dropout2d): Dropout2d(p=0.5, inplace=False)\n","  (fc): Sequential(\n","    (0): Linear(in_features=18432, out_features=1024, bias=True)\n","    (1): ReLU(inplace=True)\n","    (2): Dropout(p=0.4, inplace=False)\n","    (3): Linear(in_features=1024, out_features=512, bias=True)\n","    (4): Dropout(p=0.4, inplace=False)\n","    (5): Linear(in_features=512, out_features=1, bias=True)\n","    (6): Sigmoid()\n","  )\n",")\n"]}],"source":["# create a complete CNN\n","model = CNN()\n","print(model)\n","\n","# Move model to GPU if available\n","if train_on_gpu: model.cuda()"]},{"cell_type":"code","execution_count":null,"metadata":{"id":"UkzS-xVbQng7"},"outputs":[],"source":["criterion = nn.BCELoss()\n","\n","# specify optimizer\n","optimi
…
